model/model.pth (torch, 16467 bytes, 4 tensors)

linear1.weight f4 [250, 11]
-0.4612341 -0.020613842 0.50995445 -0.041476816 -0.13963798 -0.20198196 0.21946712 0.3236772
-0.21782935 -0.2765856 0.064842045 -0.25065258 0.21357799 -0.08954836 -0.15746614 0.31098542
0.18150371 -0.19814564 -0.29309022 -0.04369281 -0.30002198 0.29556823 0.5360416 0.050587866
0.31017894 0.06218992 -0.24282806 0.08501268 0.18494499 -0.41779163 -0.14823374 0.12156921
-0.43491563 0.23365606 0.11340413 0.049655087 -0.33729768 -0.35752997 -0.33176392 0.043403186
0.06788125 -0.21122783 -0.23728819 -0.34560817 -0.24732196 0.299548 0.32577384 -0.011048814
-0.0319833 -0.1832165 0.18493803 -0.47523272 -0.18284696 -0.016677868 -0.22502747 0.51086235
0.31390214 -0.73769194 -0.018807948 -0.20282343 0.02134746 0.08690932 -0.2623171 -0.06522863
0.13239117 -0.19479191 0.09209835 -0.016614625 0.21164358 -0.076656274 -0.20522563 -0.14509256
-0.27647683 0.051640004 -0.06404136 -0.30983025 -0.35709545 0.55806744 -0.22349422 -0.27871072
0.1485704 0.3731238 -0.45510253 -0.2008448 -0.012192475 -0.277699 0.311552 0.1593609
0.22385904 -0.1327731 0.40923178 0.09822588 -0.30316433 0.3793312 0.3378929 -0.12330312
0.3298652 -0.18250063 -0.6269803 0.4797136 -0.055489406 -0.16716512 -0.15362917 0.39728722
0.2795748 -0.48070812 0.37446862 -0.2852573 0.22064379 0.6043239 -0.62011373 0.44572592
-0.51882607 -0.023466295 -0.051343925 -0.06681605 0.19046915 0.21786062 0.10455595 0.052419484
0.4309782 0.3994568 0.33995908 -0.4932904 -0.0068436703 -0.21754305 -0.052766994 0.1915837
-0.47799534 0.050572265 0.16117981 -0.30738714 0.20580739 0.05451741 -0.24470413 -0.20985901
-0.18599123 0.14137372 -0.26800096 -0.2619578 -0.18792777 0.14662752 -0.02317971 -0.0028930139
0.5626504 -0.1432618 -0.39401546 -0.19730571 -0.26790586 -0.5833221 -0.20572463 -0.26727194
-0.17068133 -0.20674713 -0.7016114 -0.39499387 0.56434333 -0.17669769 -0.020547498 -0.038512398
-0.15584603 -0.3377083 0.012613117 -0.09649513 -0.20934099 0.15819532 0.3499802 -0.5472921
-0.45641 -0.003390248 0.07365192 0.19542801 0.19975178 -0.13924192 0.26810458 -0.49094003
-0.60150516 0.5425177 -0.009930312 0.13187446 -0.44951537 0.06036306 0.090668015 0.25918144
-0.09565936 -0.13947067 0.35657042 -0.361964 0.18909167 0.0872527 -0.02160391 -0.073149495
-0.024693055 -0.068647966 -0.4097812 -0.30070212 0.08057642 -0.07359731 -0.66892815 -0.08762203
0.15948133 -0.35173833 0.23294847 0.2640297 -0.091942 0.32223636 -0.27792493 0.053043935
-0.17428467 0.19898173 0.14308703 0.425837 0.16020955 0.20863289 0.18530074 -0.37430686
0.1121777 0.086280845 -0.3209302 0.7312184 0.022913164 -0.20513214 -0.3250496 0.09808931
0.09200107 -0.25406614 0.12483453 0.0816992 0.055783894 -0.29764232 -0.14017084 -0.29419574
-0.1708355 -0.12153599 -0.13356103 0.17210028 0.2217561 -0.27655807 -0.056184232 -0.18785729
-0.25743356 -0.26128078 0.14459865 -0.2696615 -0.036008347 -0.4376928 0.062178236 -0.25959742
-0.11813287 -0.53011847 -0.4687088 -0.29324234 0.003942185 -0.6347188 0.48023477 0.431816
00000000: e026 ecbe 5cde a8bc 608c 023f 98e3 29bd
00000010: 42fd 0ebe 5cd4 4ebe fdbb 603e 05b9 a53e
00000020: a80e 5fbe a19c 8dbe e8cb 843d 8955 80be
00000030: 30b4 5a3e 2165 b7bd ce3e 21be 7b39 9f3e
00000040: 1cdc 393e b1e6 4abe ec0f 96be 3bf7 32bd
00000050: 7b9c 99be b854 973e 063a 093f 3935 4f3d
00000060: c6cf 9e3e dcba 7e3d eba7 78be 211b ae3d
00000070: 3862 3d3e c9e8 d5be 96ca 17be 47f9 f83d
00000080: 43ad debe 8943 6f3e 6d40 e83d 2263 4b3d
00000090: 48b2 acbe 2b0e b7be f6dc a9be 8ac7 313d
000000a0: 5305 8b3d 1c4c 58be adfb 72be 8ef3 b0be
000000b0: f841 7dbe 5b5e 993e d4cb a63e 1606 35bc
000000c0: ec00 03bd 1b9d 3bbe 6560 3d3e b451 f3be
000000d0: 3c3c 3bbe 06a0 88bc 9a6d 66be e0c7 023f
000000e0: c8b7 a03e 61d9 3cbf 2013 9abc f2b0 4fbe
000000f0: dee0 ae3c 83fd b13d 6d4e 86be 9796 85bd
00000100: 8d91 073e 8877 47be 0f9e bc3d 651b 88bc
00000110: 18b9 583e f7fd 9cbd ab26 52be 2593 14be
00000120: 5f8e 8dbe 7884 533d 1e28 83bd 12a2 9ebe
00000130: 37d5 b6be 82dd 0e3f abdb 64be 2cb3 8ebe
00000140: d722 183e 150a bf3e 3303 e9be 42aa 4dbe
00000150: f2c2 47bc 902e 8ebe be83 9f3e 812f 233e
00000160: 4e3b 653e acf5 07be d486 d13e a62a c93d
00000170: 5b38 9bbe b337 c23e 4c00 ad3e 5986 fcbd
00000180: 17e4 a83e 72e1 3abe c881 20bf 059d f53e
00000190: dc48 63bd 552d 2bbe f750 1dbe 3b69 cb3e
000001a0: 6e24 8f3e 601f f6be 5aba bf3e 3f0d 92be
000001b0: 72f0 613e f9b4 1a3f c6bf 1ebf 3036 e43e
000001c0: c9d1 04bf 633c c0bc 024e 52bd dad6 88bd
000001d0: 580a 433e db16 5f3e 6e21 d63d d0b5 563d
000001e0: 2da9 dc3e 9a85 cc3e 1e0f ae3e 8f90 fcbe
000001f0: de40 e0bb 9bc3 5ebe 3422 58bd 842e 443e
00000200: cebb f4be dd24 4f3d 520c 253e d961 9dbe
00000210: 2cbf 523e a64d 5f3d b893 7abe 48e5 56be
00000220: 7c74 3ebe 46c4 103e 6c37 89be 551f 86be
00000230: 2370 40be 8625 163e 60e3 bdbc b898 3dbb
00000240: db09 103f 39b3 12be 65bc c9be 820a 4abe
00000250: f52a 89be 9954 15bf 7aa9 52be ded7 88be
00000260: 16c7 2ebe 85b5 53be ce9c 33bf a33c cabe
00000270: ce78 103f 3df0 34be 3a53 a8bc 2dbf 1dbd
00000280: 1a96 1fbe 1ae8 acbe 3fa7 4e3c 3d9f c5bd
00000290: 7c5d 56be f4fd 213e 9b30 b33e 561b 0cbf
000002a0: 92ae e9be ec2e 5ebb d1d6 963d 481e 483e
000002b0: bb8b 4c3e 6f95 0ebe 0145 893e 7e5c fbbe
000002c0: 3efc 19bf 71e2 0a3f bfb2 22bc 190a 073e
000002d0: e126 e6be 423f 773d 27b0 b93d 6eb3 843e
000002e0: 0ee9 c3bd 66d1 0ebe 6690 b63e 5853 b9be
000002f0: 3fa1 413e 8bb1 b23d affa b0bc 67cf 95bd
00000300: 1749 cabc 4e97 8cbd d7ce d1be a1f5 99be
00000310: 4005 a53d 30ba 96bd e03e 2bbf 2e73 b3bd
00000320: 134f 233e 0c17 b4be 0b8a 6e3e e72e 873e
00000330: 164c bcbd 2afc a43e 2d4c 8ebe 9944 593d
00000340: ae77 32be dec1 4b3e 6885 123e 4f07 da3e
00000350: f90d 243e dca3 553e 7abf 3d3e 26a5 bfbe
00000360: 6cbd e53d 03b4 b03d f750 a4be 2131 3b3f
00000370: 63b4 bb3c 290e 52be e76c a6be 0ce3 c83d
00000380: 0f6b bc3d f514 82be 3fa9 ff3d e951 a73d
00000390: a77d 643d 9364 98be f288 0fbe d3a0 96be
000003a0: 80ef 2ebe dce7 f8bd 39c4 08be 0e3b 303e
000003b0: 0814 633e 0599 8dbe 7021 66bd a95d 40be
000003c0: 55ce 83be 98c6 85be ab11 143e 1211 8abe
000003d0: 7d7d 13bd 4519 e0be 9bae 7e3d f4e9 84be
000003e0: a5ef f1bd d8b5 07bf 9afa efbe dc23 96be
000003f0: 722d 813b ee7c 22bf 55e1 f53e fd16 dd3e

linear1.bias f4 [250]
-0.15097862 -0.18982144 0.076602995 -0.004859872 -0.23725589 0.05380851 -0.32131073 -0.1428305
-0.019985102 -0.10553173 0.14463833 -0.10679607 -0.348176 0.021467552 -0.23673344 0.05427723
-0.019656895 -0.33622262 -0.08866958 -0.36903507 -0.23687592 -0.27944168 -0.102207474 0.006219625
-0.34977287 -0.2332365 -0.34320167 -0.12952258 -0.21756184 -0.12326917 0.41074476 -0.29038697
0.107309945 -0.2714047 -0.089170955 0.16333598 0.028031114 0.17904732 -0.06639821 -0.37456736
-0.15715006 0.0035708589 -0.27774307 -0.17526248 0.25120354 -0.11678923 0.17952365 -0.3140607
-0.2615767 0.07610207 -0.208644 -0.18383941 0.03359292 -0.22450513 -0.029615276 0.2589487
-0.079133876 -0.18471134 -0.28678688 -0.05056694 -0.33993348 -0.12553196 0.047972377 -0.19499926
-0.27049723 -0.22415034 0.14876965 -0.45258823 0.21692339 -0.09647732 -0.035859354 -0.21406272
0.10371458 -0.19071156 -0.05499736 0.04505433 -0.1559473 -0.3542499 -0.1655553 -0.19435439
-0.27574742 -0.0014672275 -0.050770793 -0.0702752 -0.34811488 -0.20392959 0.0019586347 -0.28928468
-0.08503462 -0.12900268 0.059212603 0.012822927 -0.15962522 -0.33364546 0.061192855 -0.0052522654
0.12191429 -0.23384744 0.059589025 -0.23109084 -0.17709073 -0.36426762 0.036852702 -0.025352329
-0.26928854 -0.08814726 -0.44732758 -0.4371002 -0.17547302 -0.23212354 -0.16636266 -0.46801063
-0.2093871 0.0405626 -0.0054386854 -0.2697048 -0.078761496 -0.16919172 -0.09902773 -0.14511694
-0.17822145 -0.22082749 -0.057016436 -0.21773972 0.18785766 -0.02910715 -0.16835757 0.018894669
-0.19366363 -0.0028108344 -0.047477283 -0.02077703 -0.069286995 0.082187414 -0.3063483 -0.22545576
-0.11464059 0.096370704 -0.35064802 -0.17356527 -0.3942505 -0.15842083 0.11414328 0.18750608
-0.07408794 -0.2981879 0.13527156 -0.017295951 -0.13310464 -0.08870997 -0.0810207 -0.46000642
-0.19797213 -0.021448588 -0.27901605 0.3977595 -0.16560666 -0.28525868 0.08097598 -0.109889895
-0.21825059 -0.12980811 0.2881192 -0.25670114 0.0363104 0.15453619 -0.17635478 -0.3274804
-0.18877228 0.397517 0.40264776 0.15680405 -0.33812687 0.016857978 -0.04621318 -0.29689994
0.0364505 0.20785797 0.13524787 -0.18030873 -0.13729289 -0.1259872 -0.06681682 0.2396063
-0.17706513 -0.29073924 -0.27967793 -0.032241687 -0.28467977 -0.23265846 -0.12523606 -0.28569344
-0.21572478 -0.005835378 -0.30278084 -0.25506723 -0.065695666 -0.25266635 0.09875596 -0.23155522
0.26448992 -0.39300337 -0.086025774 0.046545852 -0.06186114 -0.43353388 -0.07262826 -0.19415966
-0.16332516 -0.256128 -0.29556993 -0.17857663 -0.16582897 0.031098394 -0.21830015 0.08989444
-0.20068423 -0.113257945 -0.4488119 -0.2231702 0.008430984 -0.280342 -0.24359065 0.37775353
0.03206705 0.089614496 -0.4218835 0.40797624 -0.32025677 0.073603496 -0.26035455 -0.42719376
0.24716474 -0.04587495 -0.106823795 0.27742052 -0.09697377 0.14472567 -0.30012608 -0.22907138
-0.07871957 -0.2807565 -0.41405362 -0.18684489 -0.13601573 0.17192 -0.04267799 -0.0717478
-0.219398 0.0980389
00000000: 249a 1abe 8d60 42be 08e2 9c3d 903f 9fbb
00000010: 35f3 72be 5066 5c3d d782 a4be 2942 12be
00000020: ccb7 a3bc 0521 d8bd 121c 143e e6b7 dabd
00000030: 2044 b2be b8dc af3c 406a 72be cd51 5e3d
00000040: 7f07 a1bc 5f25 acbe 6698 b5bd 2af2 bcbe
00000050: 9a8f 72be fb12 8fbe 2752 d1bd ffcd cb3b
00000060: 6e15 b3be 8dd5 6ebe 21b8 afbe 91a1 04be
00000070: 88c8 5ebe 8c74 fcbd 234d d23e 9aad 94be
00000080: 51c5 db3d 8ff5 8abe 439f b6bd 8c41 273e
00000090: 82a1 e53c 2e58 373e c9fb 87bd 4bc7 bfbe
000000a0: f2eb 20be 1205 6a3b 5734 8ebe 0278 33be
000000b0: c09d 803e 312f efbd 0cd5 373e 90cc a0be
000000c0: 62ed 85be 67db 9b3d c6a6 55be 6640 3cbe
000000d0: bb98 093d ace4 65be bc9b f2bc ed94 843e
000000e0: f110 a2bd f824 3dbe bbd5 92be 481f 4fbd
000000f0: c30b aebe 738b 00be af7e 443d e3ad 47be
00000100: 9d7e 8abe ab87 65be 1257 183e a5b9 e7be
00000110: 2a21 5e3e e795 c5bd 42e1 12bd 4233 5bbe
00000120: 4f68 d43d e449 43be e944 61bd e48a 383d
00000130: a6b0 1fbe 3e60 b5be 5487 29be d604 47be
00000140: c42e 8dbe fc4f c0ba 09f5 4fbd 72ec 8fbd
00000150: 1d3c b2be ebd2 50be 705c 003b 1f1d 94be
00000160: a126 aebd 4719 04be ea88 723d 4117 523c
00000170: cb74 23be 94d3 aabe 5ca5 7a3d 321b acbb
00000180: 33ae f93d b475 6fbe 9f13 743d 14a3 6cbe
00000190: 4657 35be 4981 babe dcf2 163d b0af cfbc
000001a0: 30e0 89be 8d86 b4bd 1f08 e5be 99cb dfbe
000001b0: 33af 33be cbb1 6dbe f95a 2abe 179f efbe
000001c0: 9269 56be f824 263d 0037 b2bb bf16 8abe
000001d0: b54d a1bd 9840 2dbe 0dcf cabd 8999 14be
000001e0: af7f 36be 9a20 62be 118a 69bd 29f7 5ebe
000001f0: c25d 403e 1e72 eebc ed65 2cbe fec8 9a3c
00000200: c24f 46be fa35 38bb 8a77 42bd 9734 aabc
00000210: 57e6 8dbd e051 a83d afd9 9cbe e0dd 66be
00000220: b0c8 eabd 015e c53d 2388 b3be 18bb 31be
00000230: 34db c9be 1239 22be f4c3 e93d 9801 403e
00000240: 6bbb 97bd 16ac 98be a184 0a3e 3db0 8dbc
00000250: 954c 08be 93ad b5bd 2eee a5bd f685 ebbe
00000260: 35b9 4abe f3b4 afbc 31db 8ebe 22a7 cb3e
00000270: cb94 29be 6d0d 92be bcd6 a53d f40d e1bd
00000280: 157d 5fbe 6bec 04be 5c84 933e 556e 83be
00000290: 37ba 143d bc3e 1e3e 5996 34be 83ab a7be
000002a0: 854d 41be 5987 cb3e d927 ce3e 3e91 203e
000002b0: f71e adbe be19 8a3c 084a 3dbd 4503 98be
000002c0: 1f4d 153d b8d8 543e 6b7e 0a3e daa2 38be
000002d0: 8296 0cbe ca02 01be 42d7 88bd 5b5b 753e
000002e0: 9050 35be c6db 94be f231 8fbe dc0f 04bd
000002f0: 8cc1 91be 053e 6ebe e23d 00be 6946 92be
00000300: f5e6 5cbe b336 bfbb 1706 9bbe 2c98 82be
00000310: 738b 86bd 7c5d 81be 9140 ca3d d01c 6dbe
00000320: 396b 873e bd37 c9be 482e b0bd dda6 3e3d
00000330: 1b62 7dbd 27f8 ddbe 20be 94bd cad1 46be
00000340: b63e 27be 3623 83be f154 97be cbdc 36be
00000350: 12cf 29be 0fc2 fe3c 138a 5fbe 931a b83d
00000360: 2b80 4dbe c8f3 e7bd acca e5be bb86 64be
00000370: 1c22 0a3c fd88 8fbe d46f 79be e968 c13e
00000380: bd58 033d ce87 b73d 1d01 d8be 43e2 d03e
00000390: b2f8 a3be 6ebd 963d 314d 85be 24b9 dabe
000003a0: c118 7d3e 5fe7 3bbd 6fc6 dabd 100a 8e3e
000003b0: 2f9a c6bd f732 143e 20aa 99be b091 6abe
000003c0: ba37 a1bd 51bf 8fbe d6fe d3be 4454 3fbe
000003d0: b547 0bbe cc0b 303e 1ecf 2ebd 83f0 92bd
000003e0: dfa9 60be 9ec8 c83d

linear2.weight f4 [3, 250]
0.06903133 -0.09053443 -0.24883123 -0.124234505 -0.04246146 -0.2579281 -0.17700459 -0.41142964
-0.5620129 -0.5830029 0.08760965 -0.3100079 -0.014352603 -0.10493593 -0.010964571 -0.28833693
0.12809606 0.18758985 -0.32017148 -0.31016254 -0.011423277 0.055043004 -0.030790024 0.18298976
-0.00016615794 -0.02900017 -0.027368573 0.015257066 -0.049205925 0.016868476 0.2865018 -0.089512326
-0.20262347 -0.04590468 0.056809388 0.14820498 -0.036963128 0.34355226 -0.40114835 -0.014937075
-0.42946467 -0.25741243 -0.024322411 0.0077102785 0.35103676 -0.35166588 -0.36235523 -0.0006235853
-0.00013780175 0.031350598 0.013155782 -0.04528967 -0.24832301 -0.12594222 0.024794783 0.6697108
-0.014585251 -0.011349542 0.07246662 0.0035621044 -0.12239103 0.08317401 -0.025799638 -0.41948378
0.17503084 0.002169367 0.32972103 0.057251588 -0.29490465 -0.305375 -0.10317805 -0.19347087
-0.37647122 0.02425283 -0.5298824 0.16690956 -0.0028956165 0.06678327 -0.046235643 -0.07154748
-0.017321788 0.22780392 -0.108229645 -0.18786913 -0.1436818 -0.21664947 0.0911744 0.2201353
-0.0027871893 -0.15684694 0.09680723 0.31889033 -0.020236894 0.01335115 -0.0457363 0.062716305
0.46473 -0.06710761 -0.3077134 0.23820968 -0.21533237 0.13158584 -0.40148264 -0.2991131
-0.0053234464 -0.40012476 0.026517168 -0.1633651 0.053723954 -0.028018085 -0.003714701 -0.067822054
-0.012285886 -0.3075535 -0.111814365 -0.041496743 -0.009338664 -0.029537719 0.10742561 -0.21264063
-0.039459515 -0.31848896 -0.1584259 -0.07158236 0.12500966 0.036505613 -0.031762283 0.19794981
-0.046819434 0.0146375885 -0.049067322 0.049080744 -0.114264935 -0.3120961 -0.09004829 -0.24134637
-0.14456351 0.108636945 -0.08723268 -0.12188339 0.007809446 -0.0152992215 -0.38433492 -0.15954858
-0.27115357 -0.43679756 0.43308142 0.1714813 -0.18723252 0.4257022 -0.36058447 -0.064677745
-0.0676773 0.3653507 0.0072570755 0.15365514 0.08021706 -0.5315061 -0.34358224 0.0010004789
0.36251724 -0.2509995 -0.67267054 -0.116029985 -0.053139508 0.028830212 -0.07347185 0.009850189
-0.11662454 0.61939096 0.43608275 0.12889339 -0.085277736 -0.22148176 -0.18846026 -0.017867703
-0.2334581 -0.06968787 -0.44366762 0.0009133365 0.11110679 0.03364974 -0.29313126 0.36568898
-0.004273917 -0.046744213 0.013418673 -0.2750756 -0.01185807 0.017084163 -0.319311 0.014629134
0.0022046412 -0.05197602 -0.020004613 0.044846978 -0.28584766 0.26165244 -0.59403116 -0.033197388
-0.26504895 0.00496973 0.07665339 -0.007505557 -0.01741417 -0.1768712 -0.22628741 0.1758306
-0.6542686 -0.20203656 0.028321138 -0.033921227 -0.27549443 -0.4248484 -0.25066736 -0.29362997
0.08478197 -0.087907486 -0.115142494 0.05511638 -0.454184 0.01318851 0.010829035 0.22098966
-0.29232377 -0.2623133 -0.041704357 0.066467986 -0.009015361 -0.2311465 0.01977165 -0.26505682
0.2021005 -0.10547236 0.1920906 0.32532448 0.37516215 0.46196908 0.027331855 -0.26706478
-0.32446647 -0.022833971 -0.030396678 -0.16837406 0.47244826 -0.4963425 -0.3947081 -0.5249742
-0.23421453 0.17116193 -0.030789986 -0.25545114 0.018935004 -0.003156349 -0.053958286 0.015218313
00000000: 4c60 8d3d 1e6a b9bd 9dcd 7ebe a96e febd
00000010: 11ec 2dbd 270f 84be b140 35be e8a6 d2be
00000020: 14e0 0fbf ae3f 15bf b06c b33d 5bb9 9ebe
00000030: 2e27 6bbc a6e8 d6bd bea4 33bc e6a0 93be
00000040: 9d2b 033e 8e17 403e 84ed a3be a0cd 9ebe
00000050: b228 3bbc c674 613d 5c3b fcbc ab61 3b3e
00000060: af3a 2eb9 c491 edbc 0f34 e0bc c6f8 793c
00000070: 278c 49bd c22f 8a3c 5db0 923e 3d52 b7bd
00000080: 877c 4fbe 8c06 3cbd f6b0 683d 0cc3 173e
00000090: a666 17bd 15e6 af3e 5163 cdbe a2ba 74bc
000000a0: cbe2 dbbe 90cb 83be cb3f c7bc 81a6 fc3b
000000b0: 17bb b33e 8d0d b4be a086 b9be 1a78 23ba
000000c0: e07e 10b9 7c69 003d 598b 573c a981 39bd
000000d0: 6348 7ebe fff6 00be 6e1e cb3c 2b72 2b3f
000000e0: faf6 6ebc 6ef3 39bc 6169 943d 3272 693b
000000f0: 26a8 fabd 2357 aa3d c359 d3bc 94c6 d6be
00000100: 493b 333e f02b 0e3b 32d1 a83e a480 6a3d
00000110: befd 96be 1d5a 9cbe 034f d3bd 3a1d 46be
00000120: d6c0 c0be dfad c63c 5fa6 07bf 57ea 2a3e
00000130: 62c4 3dbb abc5 883d 9661 3dbd 7c87 92bd
00000140: 6ce6 8dbc 6e45 693e 81a7 ddbd c460 40be
00000150: 5221 13be 5cd9 5dbe a5b9 ba3d 266b 613e
00000160: 47a9 36bb 7c9c 20be de42 c63d 9845 a33e
00000170: d8c7 a5bc c8be 5a3c fd55 3bbd 6871 803d
00000180: 17f1 ed3e b76f 89bd 9c8c 9dbe 3ded 733e
00000190: 1780 5cbe 70be 063e 228f cdbe 5a25 99be
000001a0: 4e70 aebb 27dd ccbe 883a d93c 2e49 27be
000001b0: a60d 5c3d 2f86 e5bc 5772 73bb 4ae6 8abd
000001c0: be4a 49bc a777 9dbe eefe e4bd 7df8 29bd
000001d0: 3201 19bc 16f9 f1bc f501 dc3d 77be 59be
000001e0: 4da0 21bd fc10 a3be 663a 22be c699 92bd
000001f0: 8802 003e e986 153d 2b19 02bd 5bb3 4a3e
00000200: bcc5 3fbd 7fd2 6f3c d1fa 48bd e408 493d
00000210: bc03 eabd 0fcb 9fbe 3d6b b8bd 8123 77be
00000220: 7508 14be 0c7d de3d 0ca7 b2bd 009e f9bd
00000230: 62e6 ff3b 96a9 7abc 8cc7 c4be b460 23be
00000240: a4d4 8abe eea3 dfbe d9bc dd3e cb98 2f3e
00000250: e2b9 3fbe a4f5 d93e 879e b8be c475 84bd
00000260: 659a 8abd 3f0f bb3e c3cc ed3b c657 1d3e
00000270: d848 a43d c910 08bf 03ea afbe 8022 833a
00000280: dc9b b93e 0283 80be 2334 2cbf 21a1 edbd
00000290: d0a8 59bd 562d ec3c 6978 96bd b062 213c
000002a0: d9d8 eebd 6890 1e3f 3d46 df3e a1fc 033e
000002b0: 18a6 aebd 1dcc 62be bafb 40be 4a5f 92bc
000002c0: a40f 6fbe 84b8 8ebd 6728 e3be fa6c 6f3a
000002d0: f58b e33d 4fd4 093d 4d15 96be 963b bb3e
000002e0: 370c 8cbb dc76 3fbd fed9 5b3c b6d6 8cbe
000002f0: 5a48 42bc 16f4 8b3c bb7c a3be 09af 6f3c
00000300: be7b 103b cfe4 54bd b7e0 a3bc 77b1 373d
00000310: a05a 92be 4ff7 853e 6d12 18bf fcf9 07bd
00000320: 7fb4 87be 1ed9 a23b 74fc 9c3d 2df1 f5bb
00000330: 29a8 8ebc b91d 35be e3b7 67be f00c 343e
00000340: 267e 27bf ace2 4ebe bb01 e83c fcf0 0abd
00000350: 9b0d 8dbe bb85 d9be 7957 80be ab56 96be
00000360: 2ba2 ad3d d708 b4bd d4cf ebbd b7c1 613d
00000370: ce8a e8be 9f14 583c 446c 313c 1d4b 623e
00000380: 76ab 95be ee4d 86be 30d2 2abd 5e20 883d
00000390: 2ab5 13bc abb1 6cbe 28f8 a13c 87b5 87be
000003a0: 6ff3 4e3e e501 d8bd 66b3 443e ee90 a63e
000003b0: 4115 c03e 3687 ec3e 0ee7 df3c b7bc 88be
000003c0: 7820 a6be 4f0e bbbc 7402 f9bc 406a 2cbe
000003d0: bde4 f13e 9b20 febe 2e17 cabe b664 06bf
000003e0: efd5 6fbe 1345 2f3e 483b fcbc 7eca 82be
000003f0: 951d 9b3c c0da 4ebb 5d03 5dbd 3b56 793c

linear2.bias f4 [3]
0.16734038 -0.18733995 -0.07481693
00000000: 475b 2b3e 0bd6 3fbe 9e39 99bd
